outputs/x3/best.pth (torch_old, 230266 bytes, 5 tensors)

conv1.weight f4 [64, 1, 9, 9]
-0.071013965 0.14819619 0.05640062 0.124102466 -0.101411685 0.08453026 -0.067474 -0.1534398
-0.006554073 0.10872786 0.11485445 0.09452799 -0.06960023 -0.10210503 -0.04845817 -0.03602028
-0.19723365 0.04998664 -0.019722972 0.05406829 -0.023452602 -0.047874313 -0.007544375 0.1366491
-0.010093828 -0.017969655 -0.0750167 0.009881346 -0.011098407 -0.2790869 0.03784224 0.07173728
0.10443066 0.11627186 0.08110102 -0.043763362 -0.115777284 -0.09599268 -0.17437465 0.086759664
0.09418522 0.010782078 0.05776886 0.14170796 0.004509254 0.020717598 0.003940793 0.0030768546
0.16665775 0.06305564 -0.08403914 -0.07268821 -0.0146187125 -0.0019513206 0.02991429 -0.08324461
-0.07829216 0.14688161 -0.003087119 -0.19491233 -0.025228089 0.1593697 -0.04758648 -0.029197177
-0.042802595 -0.032701686 -0.03234937 -0.024647664 -0.16699922 0.044380452 0.16892244 0.113763325
0.031775795 -0.059438862 -0.016878031 -0.055931937 0.05031026 -0.08894372 0.03828395 0.10206955
0.003836705 0.054005943 0.006810567 -0.01574909 -0.10350498 -0.07539538 -0.08207069 0.118487634
0.034437098 -0.05223325 -0.047740925 0.07710601 0.046454564 0.046467252 -0.050882015 0.031277217
0.15321057 0.087125376 0.04857554 -0.02611289 0.046594124 -0.1103165 -0.049906556 -0.09698294
-0.035439 -0.03166902 -0.057917796 0.0013558525 0.04206304 -0.015524021 0.12098413 -0.031375915
0.10805629 0.030819431 0.025396502 -0.00017816767 -0.09817768 -0.053492796 -0.02478897 0.11446559
-0.00732742 0.08691285 0.13296798 -0.011955682 0.09377884 -0.07452068 0.017320719 -0.0025219012
0.052903984 0.12390244 -0.012543464 0.017204951 0.013173705 -0.08279979 -0.0043910975 -0.07897716
-0.03181723 -0.079773925 -0.07327849 -0.11055897 -0.10105569 -0.10765703 -0.024219844 0.09870045
-0.047892723 -0.14295383 -0.17652267 -0.06889564 -0.15922321 -0.22277015 -0.20081104 -0.15847486
-0.09046302 0.123353995 0.08416757 0.15509048 0.11573524 0.26202056 0.0972255 0.25256422
0.122737795 0.13744399 0.040739104 0.15395828 0.18365435 0.33494556 0.26988372 0.2592038
0.1288009 0.039656047 0.011892879 -0.076597825 -0.097568505 -0.18482289 -0.26085892 -0.25105077
-0.2298461 -0.11189063 -0.009721516 -0.061515037 0.037704203 0.013398283 -0.026606113 -0.23339537
-0.22527732 -0.10514621 -0.054708235 0.037889358 0.054362673 -0.047959324 0.011045572 -0.033236608
0.10385295 0.1622098 0.0072971685 0.05419169 0.090678446 -0.018638324 0.049037494 0.03851978
-0.020229356 0.023394896 0.07911256 -0.0046128416 -0.07010128 -0.0316735 -0.023605902 -0.03808503
-0.0025078787 0.09782326 0.01304114 0.0768837 0.10406863 -0.04781656 0.008387191 -0.03663661
0.030797858 -0.073036045 -0.009651269 0.00014079086 -0.07022507 -0.08513945 0.03296689 -0.04428952
0.07102827 -0.016152 0.020444 -0.063452646 0.04137292 0.03807953 -0.005214825 -0.0085187005
-0.05864842 0.060509533 0.017527824 -0.037623245 0.041101117 -0.022437872 -0.06517906 0.06267989
0.045221012 -0.011836669 -0.052723296 0.07179633 0.1604244 0.098908156 -0.122662544 -0.06059994
0.04659552 0.08673126 0.084158234 0.032378856 0.00998604 -0.122422576 -0.055856008 -0.04419563
00000000: c56f 91bd bec0 173e 5604 673d 6f29 fe3d
00000010: eeb0 cfbd 331e ad3d cf2f 8abd 531f 1dbe
00000020: 8dc3 d6bb b6ac de3d cf38 eb3d e497 c13d
00000030: 918a 8ebd 711c d1bd 137c 46bd 008a 13bd
00000040: 9ef7 49be cbbe 4c3d 1292 a1bc b676 5d3d
00000050: ac1f c0bc db17 44bd ce36 f7bb beed 0b3e
00000060: 9560 25bc 1935 93bc 5ba2 99bd 5ee5 213c
00000070: 18d6 35bc 7ae4 8ebe 7700 1b3d ffea 923d
00000080: bedf d53d f11f ee3d 4b18 a63d 3641 33bd
00000090: a41c edbd cf97 c4bd 458f 32be 0daf b13d
000000a0: 2ee4 c03d 50a7 303c 0a9f 6c3d e41b 113e
000000b0: 5dc2 933b f4b7 a93c c521 813b 0ea5 493b
000000c0: 54a8 2a3e 5123 813d b61c acbd 8edd 94bd
000000d0: 5383 6fbc 74c3 ffba d00e f53c 267c aabd
000000e0: a457 a0bd 2268 163e 4351 4abb 1997 47be
000000f0: 23ab cebc d031 233e 0aea 42bd eb2e efbc
00000100: c651 2fbd 34f2 05bd c680 04bd e6e9 c9bc
00000110: d801 2bbe 47c8 353d 01fa 2c3e bffc e83d
00000120: 5627 023d 2a76 73bd cc43 8abc e318 65bd
00000130: 2212 4e3d 2028 b6bd a2cf 1c3d d709 d13d
00000140: 3a71 7b3b 5635 5d3d 2d2b df3b 3c04 81bc
00000150: 6bfa d3bd e568 9abd ae14 a8bd a5a9 f23d
00000160: ea0d 0d3d 88f2 55bd fd8b 43bd c1e9 9d3d
00000170: 2447 3e3d 7254 3e3d a969 50bd 8a1c 003d
00000180: 3be3 1c3e ca6e b23d 25f7 463d b3ea d5bc
00000190: 7bd9 3e3d 9eed e1bd d16a 4cbd fe9e c6bd
000001a0: 7c28 11bd 60b7 01bd 363b 6dbd dcb6 b13a
000001b0: 4b4a 2c3d 7758 7ebc 87c6 f73d 0884 00bd
000001c0: 9e4c dd3d 0879 fc3c 530c d03c 85d2 3ab9
000001d0: 6111 c9bd 431b 5bbd 3d12 cbbc ef6c ea3d
000001e0: db1a f0bb 5dff b13d c228 083e c4e1 43bc
000001f0: 1f0f c03d 4c9e 98bd 2ee4 8d3c 7b46 25bb
00000200: d9b1 583d 90c0 fd3d 1a83 4dbc 66f1 8c3c
00000210: 86d6 573c f092 a9bd 32e3 8fbb c7be a1bd
00000220: c952 02bd 8360 a3bd 0813 96bd be6c e2bd
00000230: 49f6 cebd 4a7b dcbd b268 c6bc 7623 ca3d
00000240: 292b 44bd 7d62 12be 5cc2 34be 2819 8dbd
00000250: 690b 23be dc1d 64be 69a1 4dbe 3c47 22be
00000260: ad44 b9bd 05a1 fc3d 0c60 ac3d 0ad0 1e3e
00000270: 9906 ed3d 8f27 863e 2a1e c73d 1950 813e
00000280: f45d fb3d 1ebe 0c3e 0cde 263d 3da7 1d3e
00000290: e30f 3c3e fc7d ab3e 332e 8a3e 5cb6 843e
000002a0: 62e4 033e 616e 223d 5ada 423c 52df 9cbd
000002b0: ffd1 c7bd 3642 3dbe 4d8f 85be ba89 80be
000002c0: c75c 6bbe ea26 e5bd fe46 1fbc 31f7 7bbd
000002d0: b96f 1a3d 7984 5b3c 10f5 d9bc 32ff 6ebe
000002e0: 19af 66be e556 d7bd be15 60bd df31 1b3d
000002f0: 65ab 5e3d ff70 44bd 7df8 343c 1c23 08bd
00000300: dbb0 d43d 531a 263e 161d ef3b 1bf8 5d3d
00000310: 9fb5 b93d 66af 98bc 8adb 483d ebc6 1d3d
00000320: 09b8 a5bc a7a6 bf3c c405 a23d 5227 97bb
00000330: 4391 8fbd 12bc 01bd 2a61 c1bc 0cff 1bbd
00000340: 395b 24bb 9057 c83d 81aa 553c 3475 9d3d
00000350: ef21 d53d 4cdb 43bd 6e6a 093c 4510 16bd
00000360: ca4b fc3c ec93 95bd 5b20 1ebc 42a1 1339
00000370: 29d2 8fbd 985d aebd 4a08 073d ed68 35bd
00000380: 4577 913d 3351 84bc 2d7a a73c 76f3 81bd
00000390: a776 293d 48f9 1b3d 1fe1 aabb 0592 0bbc
000003a0: 5339 70bd d8d8 773d 8396 8f3c d51a 1abd
000003b0: a559 283d a1cf b7bc 997c 85bd 505e 803d
000003c0: ab39 393d 97ee 41bc 62f4 57bd f409 933d
000003d0: 4b46 243e 5c90 ca3d 8036 fbbd a537 78bd
000003e0: f2da 3e3d 29a0 b13d 275b ac3d b19f 043d
000003f0: 7d9c 233c b0b8 fabd 45c9 64bd 7a06 35bd

conv1.bias f4 [64]
-0.0082673 -0.00043587154 0.024513165 -0.055898555 0.05611792 0.010143588 0.119814895 -0.0057288967
0.13403167 -0.037335392 -0.027788362 0.0124372365 -0.2915532 0.15221368 0.042890206 0.0042708484
8.372019e-05 -0.018838845 0.0007460217 0.019009756 0.01932327 0.025434803 -0.019028295 0.027802791
-0.03652006 0.024188988 -0.00014267702 -0.017830385 0.013586773 0.029320953 0.36115095 0.016957441
0.03906818 -0.026588509 -0.0032071879 -0.057481866 -0.019323979 0.056732878 0.0028301955 0.07824198
-0.009724195 -0.00749591 0.11676491 0.03635483 0.010462063 -0.0026898074 0.0064318674 -0.010049762
-0.0008540888 -0.01695897 0.013494619 0.09491178 0.011125861 -0.016441304 0.02675616 0.021139164
0.013937914 -0.025790526 0.007783043 0.019553406 0.01783503 -0.16563119 -0.04948311 -0.07843716
00000000: 9273 07bc b085 e4b9 d5cf c83c e2f5 64bd
00000010: e7db 653d 4b31 263c 8361 f53d 78b9 bbbb
00000020: 993f 093e ffec 18bd 6ba4 e3bc 8dc5 4b3c
00000030: 7646 95be e7dd 1b3e a4ad 2f3d 79f2 8b3b
00000040: ef92 af38 ec53 9abc ab90 433a 59ba 9b3c
00000050: d64b 9e3c a65c d03c 3ae1 9bbc aec2 e33c
00000060: 0f96 15bd fc27 c63c 929b 15b9 0711 92bc
00000070: 0e9b 5e3c 7f32 f03c c7e8 b83e 55ea 8a3c
00000080: f505 203d 25d0 d9bc af2f 52bb 1b72 6bbd
00000090: 524d 9ebc bc60 683d cd7a 393b 553d a03d
000000a0: 3b52 1fbc 40a0 f5bb 7122 ef3d cde8 143d
000000b0: 1369 2b3c 7b47 30bb 6ac2 d23b c2a7 24bc
000000c0: eee4 5fba 8aed 8abc 8918 5d3c 1b61 c23d
000000d0: 3e49 363c eaaf 86bc bc2f db3c 0a2c ad3c
000000e0: d95b 643c a746 d3bc e608 ff3b 772e a03c
000000f0: c51a 923c 399b 29be cdae 4abd a9a3 a0bd

conv2.weight f4 [32, 64, 5, 5]
-0.11367521 0.002488922 0.011184452 0.012513492 -0.1613205 -0.048588596 -0.011801094 0.05116895
0.022465322 -0.085333414 -0.038726743 -0.018241635 0.096486144 0.015949802 -0.014379995 -0.051371764
-0.11314142 -0.026401585 -0.062497858 0.037300467 -0.03853261 -0.064428054 -0.063969836 0.022372402
0.019176103 -0.007232292 0.08737748 -0.011025771 0.0032791628 0.029677507 0.12253921 0.07440237
0.049466394 -0.00841585 0.011982461 0.12778148 -0.00049995526 -0.026729258 -0.12490048 -0.05090986
0.04021692 -0.0067589707 -0.015056366 0.03452705 0.097971484 -0.12334045 -0.06707828 -0.12973489
-0.14671671 -0.28446344 -0.33282578 -0.3377977 -0.40429485 -0.16885556 -0.12647893 -0.046279084
-0.1077518 -0.12020904 0.036515366 -0.018830461 0.16364636 0.042303372 -0.0078100185 0.05900813
0.025965476 0.15252154 0.14743397 0.12538718 0.14993306 0.17209467 0.0133411605 -0.0046854373
-0.04120879 -0.017755734 -0.0045080283 -0.0272106 -0.05596959 -0.11556748 -0.11448415 -0.071088985
0.07593586 0.045583047 0.040970124 0.0846681 0.13808505 0.1198049 0.011178685 -0.013582055
0.07957215 0.06812012 -0.021659747 -0.029745467 0.0057161697 -0.027349046 -0.12876923 -0.082705624
-0.11032495 -0.037137195 -0.054127544 -0.09154883 0.10035789 -0.009537642 0.073289 0.040181346
0.008603555 -0.034514364 -0.09619595 0.00093734876 0.014896066 -0.036035456 0.03882602 0.0008925528
0.06724046 0.03598599 -0.07618703 -0.0031849165 0.013546138 -0.015899986 0.033163518 -0.012650065
-0.05302414 -0.032545816 -0.08080886 -0.08281898 -0.04746256 0.10318372 0.07816491 -0.10082544
-0.09604449 -0.09736553 0.112233445 0.005549592 -0.0079443995 -0.11367833 -0.12624288 0.0051531745
0.02017434 0.06487371 -0.012512576 -0.0063302694 0.007203091 0.064505205 0.13290054 0.084724806
0.004419869 -0.047669593 -0.100784 -0.103894174 -0.106713116 -0.17319237 -0.07595984 -0.03711752
-0.0042659924 0.012519281 -0.012607982 0.08541396 0.07332988 0.046783783 -0.007178419 -1.6991153e-05
0.012604647 -0.034376603 -0.069588296 -0.039785653 -0.050874118 0.021092596 0.040745664 -0.04217723
0.013224545 0.10048995 0.024593588 0.09901525 0.06521247 0.03686462 0.09307564 -0.06793925
-0.02169878 0.081969 0.06536851 -0.02952634 0.16951823 0.06861353 0.02631612 0.08480059
0.0069852667 0.05614711 0.10996236 -0.019619348 0.0022183089 0.0915976 -0.08445055 0.0020342807
0.002430119 0.015534596 0.042751316 0.22543254 0.24400648 0.07459332 -0.008562816 0.0779025
-0.060325477 0.012391903 -0.01761431 0.0022018747 -0.047842298 0.14391091 0.047802012 0.0039220094
0.07887654 0.014322453 -0.03724655 -0.07170685 -0.13043879 -0.045967713 -0.06682384 0.043090016
0.011634058 -0.03358288 -0.015888145 -0.027596077 -0.106531605 0.08737372 0.02557369 -0.05277093
-0.06648842 0.04818749 -0.011972991 -0.016968366 0.020962972 0.0009776752 0.04529489 -0.0028231991
-0.0050288984 -0.011022514 -0.050337806 -0.03923771 -0.118882656 -0.03941781 -0.024545237 -0.026971407
-0.03994653 -0.059679426 0.015226946 -0.00315541 0.027723748 0.071450144 0.000484171 -0.024496615
-0.017292378 0.03219774 -0.044713676 -0.0626942 -0.038807668 -0.0049486984 0.026044572 -0.0075864093
00000000: 8cce e8bd 2f1d 233b fe3e 373c 6405 4d3c
00000010: 3331 25be d604 47bd 6059 41bc 8896 513d
00000020: 3209 b83c 49c3 aebd ef9f 1ebd 7b6f 95bc
00000030: 879a c53d 29a9 823c 129a 6bbc 336b 52bd
00000040: b0b6 e7bd 2348 d8bc c1fd 7fbd 60c8 183d
00000050: 5fd4 1dbd dbf2 83bd 9e02 83bd 5446 b73c
00000060: 3417 9d3c ddfc ecbb f7f2 b23d 6fa5 34bc
00000070: 39e7 563b 3e1e f33c d6f5 fa3d 4560 983d
00000080: 469d 4a3d a2e2 09bc 1652 443c 26d9 023e
00000090: 6e0f 03ba 51f7 dabc d3cb ffbd db86 50bd
000000a0: 7fba 243d 5b7a ddbb faae 76bc 3c6c 0d3d
000000b0: 46a5 c83d eb99 fcbd 5660 89bd 39d9 04be
000000c0: e83c 16be 31a5 91be 2468 aabe d2f3 acbe
000000d0: bcff cebe 79e8 2cbe b183 01be 238f 3dbd
000000e0: faac dcbd 2830 f6bd 2391 153d 5742 9abc
000000f0: e992 273e 4d46 2d3d 2feb ffbb 82b2 713d
00000100: 8db5 d43c 9b2e 1c3e eef8 163e 7f65 003e
00000110: 0d88 193e 9639 303e e294 5a3c 4c88 99bb
00000120: 8cca 28bd 7974 91bc 15b8 93bb c4e8 debc
00000130: 5e40 65bd a5ae ecbd ab76 eabd 1a97 91bd
00000140: 4384 9b3d 4ab5 3a3d 4ad0 273d 7866 ad3d
00000150: 2b66 0d3e 455c f53d ce26 373c 4587 5ebc
00000160: b9f6 a23d 9082 8b3d c86f b1bc c4ac f3bc
00000170: b54e bb3b 1b0b e0bc 15dc 03be 9161 a9bd
00000180: 0cf2 e1bd 2c1d 18bd d8b4 5dbd f47d bbbd
00000190: 7088 cd3d c543 1cbc 8b18 963d 3295 243d
000001a0: edf5 0c3c ef5e 0dbd 6202 c5bd 69b8 753a
000001b0: a10e 743c ea99 13bd 0808 1f3d 34fa 693a
000001c0: 5eb5 893d 0c66 133d f207 9cbd 08ba 50bb
000001d0: 9ff0 5d3c b040 82bc 78d6 073d 3842 4fbc
000001e0: d72f 59bd c34e 05bd 1e7f a5bd ff9c a9bd
000001f0: 1a68 42bd fc51 d33d ed14 a03d 917d cebd
00000200: f9b2 c4bd 9467 c7bd a6da e53d 5ad9 b53b
00000210: 3a29 02bc 2fd0 e8bd d045 01be f6db a83b
00000220: a844 a53c 82dc 843d 8c01 4dbc 266e cfbb
00000230: e807 ec3b 4e1b 843d 1417 083e 3384 ad3d
00000240: 8cd4 903b 3141 43bd d767 cebd 78c6 d4bd
00000250: 688c dabd 5759 31be d590 9bbd 8a08 18bd
00000260: bdc9 8bbb ac1d 4d3c b691 4ebc 84ed ae3d
00000270: fa2d 963d 5aa0 3f3d f138 ebbb 3988 8eb7
00000280: b983 4e3c 7bce 0cbd 4f84 8ebd 48f6 22bd
00000290: 6161 50bd 61ca ac3c ede4 263d 08c2 2cbd
000002a0: c3ab 583c adcd cd3d 7e78 c93c 82c8 ca3d
000002b0: 1e8e 853d 5bff 163d 719e be3d bc23 8bbd
000002c0: a4c1 b1bc 5ddf a73d eddf 853d 39e1 f1bc
000002d0: 3096 2d3e 4085 8c3d e794 d73c efab ad3d
000002e0: aae4 e43b 83fa 653d f233 e13d c1b8 a0bc
000002f0: 0c61 113b 8697 bb3d 69f4 acbd 9151 053b
00000300: a242 1f3b d184 7e3c 011c 2f3d cad7 663e
00000310: d6dc 793e 62c4 983d 0e4b 0cbc 598b 9f3d
00000320: d917 77bd 6907 4b3c e34b 90bc 544d 103b
00000330: 49f6 43bd 625d 133e 0bcc 433d 3384 803b
00000340: 068a a13d b9a8 6a3c d78f 18bd 0adb 92bd
00000350: bf91 05be a448 3cbd f0da 88bd 287f 303d
00000360: c79c 3e3c 348e 09bd db27 82bc 2b11 e2bc
00000370: 3e2d dabd fef0 b23d ea7f d13c 5526 58bd
00000380: 152b 88bd 3f60 453d 5d2a 44bc 3e01 8bbc
00000390: 8aba ab3c 5625 803a 2287 393d 6c05 39bb
000003a0: 75c9 a4bb c697 34bc 042f 4ebd b9b7 20bd
000003b0: c078 f3bd 9274 21bd 1813 c9bc 24f3 dcbc
000003c0: f99e 23bd 6a72 74bd 717a 793c ffca 4ebb
000003d0: ea1c e33c 7454 923d 55d8 fd39 20ad c8bc
000003e0: bfa8 8dbc c7e1 033d b025 37bd d165 80bd
000003f0: caf4 1ebd b128 a2bb 6d5b d53c 6a97 f8bb

conv2.bias f4 [32]
0.021000793 -0.05245773 -0.0012579365 0.0061454913 0.04848548 -0.027977653 -0.028323699 0.049268417
0.007585121 0.033862527 -0.001644535 -0.05704812 0.047957953 0.017553225 0.17948213 0.06331242
-0.037091453 0.0013518237 0.014651729 0.050312266 0.08568348 -0.02729983 -0.039776232 0.06765932
-0.012649196 0.038335018 0.041401673 0.04095463 0.040614706 0.029516466 -0.04136748 0.03846252
00000000: db09 ac3c ebdd 56bd 58e1 a4ba 1e60 c93b
00000010: b698 463d 6431 e5bc 1a07 e8bc aecd 493d
00000020: 9b8c f83b 6fb3 0a3d 708d d7ba 4aab 69bd
00000030: 8f6f 443d c8cb 8f3c 2aca 373e f1a9 813d
00000040: 35ed 17bd ad2f b13a ce0d 703c 3c14 4e3d
00000050: d27a af3d e5a3 dfbc 67ec 22bd f890 8a3d
00000060: 933e 4fbc 2e05 1d3d cd94 293d 0bc0 273d
00000070: 9b5b 263d 84cc f13c f270 29bd e08a 1d3d

conv3.weight f4 [1, 32, 5, 5]
0.037655957 0.056253612 0.057877745 0.062625885 0.04089814 -0.020011183 -0.016181316 -0.03202938
-0.012309928 -0.005983034 -0.03889862 -0.044185124 -0.08100925 -0.092995875 -0.036199935 -0.0026143608
0.011860231 0.0012379895 -0.030933924 -0.00481012 0.029052032 0.043322597 0.065661415 0.03951494
0.027457327 0.004961068 -0.025582489 0.01755211 0.022026354 -0.033716153 0.011928204 -0.0126135
0.019261174 -0.011308139 -0.0033096296 -0.042332225 0.01994132 0.0056549753 0.028006524 -0.011051487
0.019071812 -0.02429616 -0.025840666 -0.021259638 0.019210678 0.036803175 0.026443273 -0.02104394
-0.01265924 0.024059504 -0.013824304 -0.011625537 0.026905542 -0.029829614 -0.017113378 -0.019580431
-0.0073728575 -0.025940433 0.008169637 -0.024669042 -0.01505674 -0.03492339 0.02303194 -0.021488372
-0.0040213675 -0.020564683 -0.00490844 -0.007288955 -0.011799359 -0.00023254621 0.015401879 0.029171184
0.025951836 -0.02656152 -0.00403829 -0.05996115 -0.022606697 -0.0041690543 -0.009275796 -0.017230235
0.0022692268 0.0625037 0.058943313 0.015764598 0.023363687 0.058071956 0.072594896 0.003208255
-0.048619863 0.0007088963 0.0073711174 -0.02250511 -0.08595016 -0.06736772 0.004480915 -0.003325063
-0.018631067 -0.016176326 0.017936673 0.04962462 -0.0012062585 0.0024797968 0.012448532 -0.0048189634
0.0022230875 -0.015887462 0.026806561 -0.0018444536 0.024398243 -0.020524457 -0.034285232 -7.4338925e-05
-0.034650434 0.021475427 0.02272839 0.02079514 0.024375735 0.0068468214 0.0094527295 -0.0069370233
0.028091488 0.0083718505 -0.01234604 -0.036950313 0.0013483353 0.0043405723 0.041572146 0.033381224
0.014783941 -0.008911095 0.015351611 -0.0056960755 0.00042680858 0.010891415 -0.0011630119 -0.006278671
-0.023342365 -0.033002734 -0.0067744865 0.025466545 0.0012007958 -0.053148124 -0.034096397 0.0153681645
0.031148378 0.011989054 -0.02388384 -0.007912019 0.020923914 0.0071697813 0.006748719 -0.0053778207
0.00879368 0.0009504492 -0.007975341 0.008263917 0.003193845 -0.007259892 0.023023646 0.03285077
0.019861992 -0.012573894 -0.02935553 -0.026522784 -0.016648103 -0.006726023 0.01547402 0.010826791
0.03152618 -0.0386513 -0.023900123 0.031035539 -0.022869866 0.023572557 -0.00044328964 -0.0065852227
0.022749908 0.025809547 -0.013970451 -0.0010716566 0.02993338 0.026123947 0.011957234 -0.02105802
-0.02345782 0.021897918 0.016680919 -0.006674894 0.03390103 0.02437634 -0.010495898 0.012224522
0.03218901 0.020279547 -0.016925167 -0.03528405 0.008648018 0.012131374 -0.03413753 0.0066567217
-0.021805082 0.014141478 -0.017277151 -0.026705595 0.0339294 0.021142181 -0.014275769 -0.025032965
0.023726342 -0.022237025 -0.0104874605 -0.015701404 0.010905918 -0.0019325825 0.01291118 -0.019798357
0.026089957 0.0040681204 -0.024428561 -0.025834257 0.021478344 -0.015274952 0.0098911645 0.0008987826
-0.016428817 0.03327935 -0.0017205661 0.013255426 0.013809766 -0.0005058643 0.027923321 -0.016017452
0.005320248 -0.0014085133 0.0062197656 -0.017209517 -0.031020721 -0.039721623 0.011885122 0.008364162
-0.032381035 0.00017618183 -0.029268706 -0.028321154 0.025846194 -0.013876621 0.030847486 0.03948367
0.004951785 0.010428241 -0.030474711 -0.014747212 -0.0014915246 0.007933076 0.014332118 0.019453863
00000000: 223d 1a3d 306a 663d 3711 6d3d 0042 803d
00000010: cf84 273d 7eee a3bc ae8e 84bc 3d31 03bd
00000020: 95af 49bc 540d c4bb 2954 1fbd 76fb 34bd
00000030: 2de8 a5bd 9f74 bebd 6246 14bd b255 2bbb
00000040: 6a51 423c 0944 a23a 2469 fdbc 369e 9dbb
00000050: 87fe ed3c 0973 313d 7e79 863d 6bda 213d
00000060: 30ee e03c 7490 a23b 5e92 d1bc 71c9 8f3c
00000070: 9d70 b43c f319 0abd 846e 433c daa8 4ebc
00000080: 9cc9 9d3c c645 39bc 5fe6 58bb 8e64 2dbd
00000090: fb5b a33c 5f4d b93b f06d e53c 4c11 35bc
000000a0: 7d3c 9c3c be08 c7bc ceaf d3bc b128 aebc
000000b0: b65f 9d3c edbe 163d 909f d83c 5764 acbc
000000c0: b368 4fbc 7018 c53c 557f 62bc 0979 3ebc
000000d0: 0369 dc3c 3c5d f4bc 5b31 8cbc 2467 a0bc
000000e0: 0398 f1bb 0881 d4bc f1d9 053c bb16 cabc
000000f0: 8bb0 76bc d40b 0fbd 7bad bc3c 6208 b0bc
00000100: adc5 83bb 4477 a8bc fbd6 a0bb 30d8 eebb
00000110: 1952 41bc a6d7 73b9 2a58 7c3c 68f8 ee3c
00000120: f298 d43c 8b97 d9bc a253 84bb d399 75bd
00000130: ae31 b9bc 909c 88bb 82f9 17bc 6c26 8dbc
00000140: 4fb7 143b f101 803d 8b6e 713d c224 813c
00000150: 3465 bf3c dcdc 6d3d a2ac 943d 9641 523b
00000160: 9f25 47bd 3ad5 393a 6a89 f13b a35c b8bc
00000170: a306 b0bd 16f8 89bd a4d4 923b 4de9 59bb
00000180: 2ea0 98bc 3784 84bc eeef 923c 2f43 4b3d
00000190: 521b 9eba 1684 223b edf4 4b3c 65e8 9dbb
000001a0: 38b1 113b 6c26 82bc 6f99 db3c 98c1 f1ba
000001b0: d3de c73c e822 a8bc ac6e 0cbd 68e6 9bb8
000001c0: 9ded 0dbd 3ced af3c e330 ba3c 925a aa3c
000001d0: 9faf c73c 4d5b e03b 9fdf 1a3c f84f e3bb
000001e0: 1f20 e63c 162a 093c 0c47 4abc 3659 17bd
000001f0: a0ba b03a 5c3b 8e3b 8e47 2a3d c0ba 083d
00000200: 5838 723c d7ff 11bc 5385 7b3c 25a6 babb
00000210: 47c5 df39 e871 323c 3470 98ba 4fbd cdbb
00000220: 7d38 bfbc e02d 07bd 83fc ddbb 379f d03c
00000230: 0564 9d3a d9b1 59bd aaa8 0bbd c1ca 7b3c
00000240: e22a ff3c bd6d 443c 0ba8 c3bc 6aa1 01bc
00000250: a168 ab3c 7cf0 ea3b 5c24 dd3b 6e38 b0bb
00000260: 5e13 103c 9127 793a 01ab 02bc 6165 073c
00000270: d44f 513b 63e4 edbb 169c bc3c 878e 063d
00000280: 9eb5 a23c bc02 4ebc 027b f0bc 4f46 d9bc
00000290: 9a61 88bc f865 dcbb be86 7d3c da62 313c
000002a0: 9921 013d d350 1ebd 31ca c3bc 3e3e fe3c
000002b0: 9659 bbbc 3c1b c13c 5469 e8b9 dac8 d7bb
000002c0: 045e ba3c 8b6e d33c 52e4 64bc d476 8cba
000002d0: d936 f53c e301 d63c 46e8 433c de81 acbc
000002e0: 9d2a c0bc 4363 b33c 6ca6 883c 12b9 dabb
000002f0: cedb 0a3d e4b0 c73c fdf6 2bbc 5d49 483c
00000300: a0d8 033d 4b21 a63c a6a6 8abc 0286 10bd
00000310: 6bb0 0d3c acc2 463c cbd3 0bbd a120 da3b
00000320: 92a0 b2bc a8b1 673c d088 8dbc b1c5 dabc
00000330: 8ef9 0a3d 5e32 ad3c eae4 69bc ef11 cdbc
00000340: bf5d c23c 6c2a b6bc 99d3 2bbc 3ba0 80bc
00000350: bcae 323c b54e fdba 6a89 533c 2a30 a2bc
00000360: 9bba d53c de4d 853b 681e c8bc 5da2 d3bc
00000370: 5af3 af3c cb43 7abc 8d0e 223c 479c 6b3a
00000380: ba95 86bc ed4f 083d 9e84 e1ba 492d 593c
00000390: 5b42 623c fa9b 04ba 73bf e43c 0837 83bc
000003a0: 7a55 ae3b dd9d b8ba 2dcf cb3b f9fa 8cbc
000003b0: 2b1f febc 24b3 22bd d1b9 423c d709 093c
000003c0: faa1 04bd 73bd 3839 edc4 efbc c401 e8bc
000003d0: 66bb d33c c45a 63bc deb3 fc3c a1b9 213d
000003e0: 9542 a23b 37db 2a3c 1aa6 f9bc 4a9e 71bc
000003f0: 437f c3ba bbf9 013c 43d1 6a3c b55d 9f3c
