outputs/x3/epoch_399.pth (torch_old, 230266 bytes, 5 tensors)

conv1.weight f4 [64, 1, 9, 9]
00000000: 9ab6 93bd 4423 173e c091 663d cc04 fd3d
00000010: f02a d2bd f14b ac3d e413 8abd 57d8 1dbe
00000020: c8db bcbb c6c5 df3d deb7 ed3d 0c2d c33d
00000030: 73d5 8dbd 817d d1bd 4171 46bd 66fe 14bd
00000040: fb98 4bbe 2902 4a3d 0fe8 a0bc 9f5d 5c3d
00000050: c3fa c8bc 0c8f 47bd abf2 fabb ff39 0c3e
00000060: 2e2e 1fbc be5a 96bc 3683 99bd 1021 223c
00000070: 1e11 47bc 5da9 8fbe fdf8 173d e6c5 933d
00000080: 15d1 d63d 34b6 ef3d dfc7 a63d a634 32bd
00000090: 272d edbd 1945 c7bd d321 34be 14e8 b03d
000000a0: 12d4 c13d efaa 2e3c d270 6d3d 0dad 113e
000000b0: 36aa ae3b 1bbf ab3c 4497 843b 29a6 443b
000000c0: 4e08 2b3e 2f2e 823d d6bc adbd 3e14 96bd
000000d0: 29db 6bbc baf8 b2ba 3a35 f93c 9099 a9bd
000000e0: 2505 a0bd cdbe 163e 6f7d 0dbb f0ab 47be
000000f0: 4cac cebc b016 243e 27de 3fbd ac11 f2bc
00000100: 68b1 2ebd c078 06bd 2c5f 06bd b5c0 c4bc
00000110: a7d6 2abe 2046 373d 6be9 2d3e df6e e93d
00000120: d98e 023d 32c6 71bd 63fc 8cbc 7ae7 6abd
00000130: ce6f 4e3d c029 b5bd 12f4 1f3d e2ae d13d
00000140: 0d49 273b 53f7 5c3d 17f9 bc3b f946 85bc
00000150: 9a49 d4bd b0e4 9abd 4479 a9bd 0223 f33d
00000160: f51b 0f3d 0e27 56bd 0842 44bd 4432 9c3d
00000170: 5a7d 3e3d 4a6c 403d f689 4fbd 07ff fc3c
00000180: 0406 1d3e 0118 b33d 03fb 443d d21f d9bc
00000190: 907f 3c3d f82e e2bd 96f8 4bbd 97f0 c6bd
000001a0: 7c63 12bd a5e5 02bd 4f9e 6ebd b706 363a
000001b0: 7cd4 2d3d 22e6 76bc bb9d f93d cdc8 f8bc
000001c0: a9ef de3d fb4d 013d b322 d43c dfcf 9938
000001d0: c323 c8bd 806e 5ebd d6e7 d3bc f60b e93d
000001e0: 8f3b f2bb 5d82 b23d 4484 083e cbb5 43bc
000001f0: 1f6d bf3d ed7c 99bd cbe9 903c 4de4 29bb
00000200: fe83 593d 59df ff3d 7bcc 36bc 53a5 953c
00000210: 9199 633c 3445 a8bd e2dd 6dbb 76a3 9fbd
00000220: 3dbd 00bd 1d58 a4bd 1c85 96bd 74b3 e1bd
00000230: fcd2 cebd 91db dcbd 73d9 c7bc 013c ca3d
00000240: 22e3 45bd d455 12be d1c8 35be edb6 8ebd
00000250: 7ec2 22be 53b8 64be 5a77 4ebe 16c6 22be
00000260: 5700 bbbd a770 fd3d d080 ae3d c10c 1f3e
00000270: 737f ee3d a173 873e 0d1d ca3d e91f 823e
00000280: 9a47 fd3d 1470 0c3e fa75 2a3d 82e6 1d3e
00000290: 34e5 3c3e 15b4 ac3e 3161 8b3e 2846 853e
000002a0: 3761 043e 8c40 243d bfbb 5c3c 0da9 9bbd
000002b0: f4c0 c7bd c5ca 3dbe b7ec 85be 3c31 81be
000002c0: 6e22 6cbe a2dd e4bd dd26 19bc 0eb3 79bd
000002d0: 5637 1d3d f49f 643c 1c4e d8bc f884 6fbe
000002e0: a4c3 67be 349e d7bd 411f 5cbd 9ce4 1e3d
000002f0: 4bed 603d ed6c 42bd 92c1 3f3c 61fd 03bd
00000300: 442b d63d 21a3 263e 63fe 043c 372c 623d
00000310: a9b1 ba3d 51aa 95bc 5cb5 4a3d 0e3f 1e3d
00000320: 5cc7 a3bc 16a1 be3c 22f7 a13d 30a9 92bb
00000330: 3f12 8fbd 5442 02bd 08e0 bebc 02f0 1abd
00000340: e1ce 38bb 3937 c83d b1ef 503c 32df 9d3d
00000350: 80fd d43d b283 44bd 13b1 fa3b 8e29 17bd
00000360: f8ba ff3c 9a8c 96bd 784d 21bc f251 adb9
00000370: cefd 8fbd 7e26 afbd 0481 063d 51eb 35bd
00000380: e228 923d dce1 81bc f09d a33c 67be 82bd
00000390: 3e10 263d d062 1a3d 12cd bfbb b850 13bc
000003a0: 0031 70bd 4610 783d d81b 8c3c 5d0e 1cbd
000003b0: fb50 273d 0c4a bbbc acad 85bd 7fea 7e3d
000003c0: 3707 373d 9613 42bc 9ff7 57bd d33b 963d
000003d0: c52b 243e 0df6 c73d 3ea6 fcbd d759 79bd
000003e0: 4c1f 3e3d 4039 b33d 7205 ad3d c55a 093d
000003f0: 4ce4 093c 0924 febd 7166 6abd 879e 35bd
-0.07212563 0.14759547 0.05629134 0.123544306 -0.10262096 0.08412922 -0.06742075 -0.15414558
-0.0057635047 0.10926394 0.116073355 0.095300764 -0.06925478 -0.10229016 -0.04844785 -0.036375426
-0.19882576 0.049318466 -0.019641904 0.05380022 -0.024533635 -0.048720405 -0.007658323 0.13693999
-0.0097156 -0.018353816 -0.074957296 0.009895578 -0.012150077 -0.280589 0.037102688 0.072154805
0.10489098 0.11704674 0.08143591 -0.04350724 -0.11580878 -0.09729976 -0.17591028 0.086380154
0.09464277 0.010660871 0.057968922 0.1422617 0.0053303493 0.02096515 0.0040463526 0.0030006266
0.16702387 0.06356465 -0.08483283 -0.0732808 -0.014395514 -0.0013654449 0.030420888 -0.08281243
-0.07813481 0.14721222 -0.0021589657 -0.19499183 -0.025228642 0.1602428 -0.04684272 -0.029549442
-0.042649657 -0.03283 -0.032805607 -0.024017671 -0.16683446 0.04474461 0.16983573 0.113981
0.03187451 -0.059026904 -0.017210191 -0.05734966 0.050399594 -0.08845854 0.039051123 0.102384344
0.002552572 0.053946804 0.0057669985 -0.016269194 -0.10365601 -0.0756315 -0.08275083 0.118719116
0.03493877 -0.05228334 -0.047914535 0.07626775 0.046506263 0.046978272 -0.05066868 0.030883325
0.15334326 0.08744813 0.048090946 -0.02650443 0.04602009 -0.11044115 -0.049797617 -0.097138576
-0.035739407 -0.031957287 -0.058256444 0.00069437496 0.04243897 -0.015069516 0.12188288 -0.030369187
0.10885555 0.03156851 0.025895452 7.3343275e-05 -0.09772446 -0.0543046 -0.025867384 0.113792345
-0.007392354 0.08716271 0.13331705 -0.011945198 0.09346985 -0.07494531 0.017689606 -0.0025923431
0.053104393 0.12493772 -0.01115715 0.01826731 0.013891594 -0.082163244 -0.0036295583 -0.077948496
-0.03143047 -0.08024619 -0.07349607 -0.11020556 -0.10098836 -0.107840665 -0.02439568 0.09874726
-0.048312314 -0.14290553 -0.17752387 -0.06968484 -0.15894505 -0.22335939 -0.20162717 -0.15895876
-0.09130924 0.12375002 0.08520663 0.15532209 0.11645403 0.26455405 0.09868822 0.2541497
0.123671725 0.1371463 0.041616417 0.15419963 0.18446809 0.33731142 0.2722259 0.26030087
0.1292771 0.04010062 0.0134724965 -0.07600603 -0.097536 -0.18534382 -0.26157162 -0.25232875
-0.23060009 -0.111750856 -0.009347645 -0.060961775 0.03838285 0.013954151 -0.026404433 -0.23390567
-0.22633225 -0.10528222 -0.053740744 0.038792238 0.0549138 -0.04746716 0.011703866 -0.032224063
0.10457471 0.16273166 0.008117291 0.055217948 0.09115917 -0.01826969 0.049489364 0.038634352
-0.019992523 0.023270171 0.07908465 -0.004475735 -0.06985902 -0.031801537 -0.023300186 -0.037826546
-0.0028199481 0.09776158 0.012752459 0.07708587 0.10399914 -0.047977157 0.0076505034 -0.036904864
0.031217083 -0.07351036 -0.00984513 -0.00033058185 -0.07030831 -0.08552264 0.032837883 -0.04441387
0.07136704 -0.015854768 0.019972771 -0.063839726 0.040542834 0.03769189 -0.0058533037 -0.008991413
-0.05864048 0.060562395 0.01710312 -0.038099635 0.040848713 -0.022862457 -0.06527266 0.06223535
0.044684615 -0.01184549 -0.052726384 0.07335629 0.16032322 0.09763727 -0.12336396 -0.060876694
0.046416566 0.08751154 0.08448304 0.03353383 0.008416247 -0.12409217 -0.057226602 -0.044340637

conv1.bias f4 [64]
00000000: a9e8 0cbc 7f74 99b9 3757 c33c 6cae 67bd
00000010: 0ceb 643d b9b7 233c f584 f73d 55a8 bdbb
00000020: c4aa 083e dac9 19bd b82f e7bc 6b18 4f3c
00000030: 89a8 95be b697 1c3e 2ba3 323d eea9 843b
00000040: 53ed 4f3a 2ea6 98bc f8a3 8b3a ae11 993c
00000050: cad9 9f3c 3817 cd3c b478 9abc 1154 e43c
00000060: d5a3 14bd f640 cc3c f3cd ebb9 4e95 98bc
00000070: 5e78 643c b2a0 e63c c40e ba3e a7eb 883c
00000080: e6cf 1f3d b891 d4bc 5463 64bb 6dd1 62bd
00000090: dfa1 9abc 16a1 693d 441d 463b d63f 9f3d
000000a0: 3b64 0ebc cc0e e9bb 9025 ee3d 0a4a 153d
000000b0: f091 323c 2a09 3fbb eeac cc3b c841 38bc
000000c0: 5912 81ba 8b43 8fbc 19b1 5f3c 507c c23d
000000d0: 6e78 3f3c 215d 89bc 38c4 d63c caea ad3c
000000e0: 5eb2 633c b0b9 d2bc 35fd 053c 6bf5 a23c
000000f0: fdeb 8d3c 9cfc 29be dedc 4abd 39fa a0bd
-0.008600392 -0.0002926923 0.023845298 -0.056562826 0.05588822 0.009992533 0.120859064 -0.005787889
0.13346392 -0.037546016 -0.028220996 0.012640099 -0.29230145 0.15292248 0.04361264 0.0040485775
0.00079317874 -0.018633928 0.0010653725 0.018685188 0.01951303 0.025035486 -0.018856384 0.027872117
-0.036289055 0.02493332 -0.00044976137 -0.018625882 0.013944713 0.028152797 0.3633939 0.01671393
0.039016627 -0.02594839 -0.0034849243 -0.055375505 -0.018876014 0.05703839 0.0030229846 0.077758476
-0.008690889 -0.0071123596 0.11628258 0.036447562 0.010899052 -0.002914975 0.0062462008 -0.011246152
-0.0009847387 -0.017488262 0.013653063 0.09496367 0.0116864275 -0.01676804 0.026216611 0.02123012
0.0138975065 -0.025723308 0.008178045 0.019892415 0.017324442 -0.16600269 -0.04952704 -0.07860226

conv2.weight f4 [32, 64, 5, 5]
00000000: 0290 ecbd 9fcf b2ba b525 2b3c 467d 613c
00000010: 1d82 27be 4354 3cbd a21e 17bc 037f 513d
00000020: 6b30 b93c fdc4 b1bd fdc4 18bd 4588 5dbc
00000030: 48d0 ce3d e7a3 823c 9fff 95bc 93e0 5ebd
00000040: a84a ebbd 6cfd d7bc 6aed 80bd ae46 093d
00000050: 425a 1fbd 51d3 84bd 25f4 85bd c5cf b83c
00000060: 46b0 bd3c 2e95 e2bb 48d4 b33d e425 3fbc
00000070: 85c2 643b 9462 013d 9223 fd3d bc2a 983d
00000080: 4d73 493d 8aa1 14bc dc09 523c 54d9 043e
00000090: 38c1 93b8 0fa1 e5bc 9fdf 01be a379 53bd
000000a0: 7ba8 2e3d 21f0 c2bb e663 67bc 9639 123d
000000b0: a43e d03d f782 fbbd b2bc 8abd 9bb5 05be
000000c0: 7d10 17be 1566 92be 0f4c a9be fddb acbe
000000d0: 201b d0be 6046 2cbe 6dbb 00be 495b 36bd
000000e0: d2f4 dabd c1d3 f3bd bad0 223d 3a6c 82bc
000000f0: 3f7f 2a3e 1727 353d eaa4 ccbb 4392 7b3d
00000100: ead3 e63c a184 1e3e 7457 183e 9630 013e
00000110: 6f22 1b3e 08fa 313e 509d 5b3c c4d0 b3bb
00000120: 28f8 29bd 9628 92bc 4912 a1bb 31ba d2bc
00000130: 4946 62bd 9d10 eebd 6b87 ecbd ec68 94bd
00000140: 4020 9f3d a203 3b3d e15d 2b3d 6ffa b23d
00000150: ada9 0f3e edf7 f53d 5b1d 293c 3d3d 52bc
00000160: 5e8d a43d caf3 8d3d 7b29 adbc f6c4 f2bc
00000170: 7078 e43b 9e98 ddbc 5476 03be f7a6 a9bd
00000180: 7c9b e4bd 96b1 1ebd 4b37 64bd 01bf bdbd
00000190: eba4 d13d 159e 13bc b5a3 993d e614 253d
000001a0: 652f f83b b3a6 0ebd 08a9 c8bd eac4 f73a
000001b0: cd28 803c 65f4 16bd 5929 283d b03d dd3a
000001c0: 5c71 8d3d 0857 173d 45c0 9bbd f1d0 ccba
000001d0: 0399 773c 93a5 63bc 0518 0e3d 105a 48bc
000001e0: 1bd3 5ebd 7a39 06bd a756 a4bd 684d a8bd
000001f0: 788d 40bd 598b d23d aebe a33d 0e7a ccbd
00000200: ed58 c4bd b7a5 cabd 25f1 f03d 30ef fd3b
00000210: fc3a dabb 8ec2 e5bd f4b4 02be dfd5 fc3b
00000220: 8149 ac3c b049 863d f5ee 48bc d395 d5bb
00000230: 67f0 223c ed01 893d f9fc 093e 7eb0 b03d
00000240: 27e3 a63b 411c 38bd e208 cbbd 3b0d d4bd
00000250: 7604 dabd 79bb 2fbe 243e 9bbd 0e2b 1cbd
00000260: 9a0b b3bb 42fe 603c 87ce 50bc d3a3 ae3d
00000270: 0808 963d 83b7 3a3d 70a9 f0bb 9698 37ba
00000280: ecad 653c 2f2a 0cbd f698 8fbd cd75 24bd
00000290: 2a71 54bd 8de2 be3c 0495 2a3d 33fa 2bbd
000002a0: ed1b 533c ca8e cc3d d415 ce3c 5298 cb3d
000002b0: 3bd3 853d 3104 173d 5326 be3d 52be 8ebd
000002c0: 4cfd b9bc 5b37 aa3d 206c 873d c063 ebbc
000002d0: a532 313e f310 923d 9722 e63c da31 b13d
000002e0: 7283 0d3c 3acd 613d ee28 e63d 0374 96bc
000002f0: d811 b03a 7ca2 ba3d cdd4 b2bd 6c8a 153a
00000300: eaa0 373b 8e5f 7a3c 15ce 283d 761d 683e
00000310: 387b 7a3e 6667 973d ca52 00bc 6ee6 a33d
00000320: d153 76bd 0b6a 713c e3b9 7fbc 062d ee3a
00000330: d9a0 4dbd ae09 143e d3f2 4c3d 7bc9 ce3b
00000340: d356 a53d 4bba 623c 07c4 19bd e759 91bd
00000350: 9ec1 04be 3ab2 36bd ae6f 88bd f101 333d
00000360: e8c8 4f3c c8af 05bd 1e9d 73bc b895 ddbc
00000370: bc91 dfbd 4d3c b43d d8b8 d33c e0fe 5abd
00000380: 8d9c 8abd 8512 463d beef 40bc 2de0 7ebc
00000390: 22dd b33c 8b03 1d3b e884 323d 0b40 66bb
000003a0: e4bb 75bb acbd 23bc 8b25 49bd e5b9 1fbd
000003b0: cecf f5bd 5516 1ebd b2dd bbbc f7ce d6bc
000003c0: fc40 2cbd d8b5 78bd 7f7e 703c 69cd 63bb
000003d0: 6b8d db3c 8397 923d 343f 513a 9356 cbbc
000003e0: 58ec 8fbc 252d 043d 68ae 39bd cadc 81bd
000003f0: 4920 21bd 9136 b8bb 7592 cd3c 30fd fcbb
-0.11550905 -0.0013642198 0.010446002 0.013762778 -0.16358228 -0.045978796 -0.009223612 0.05114652
0.022606095 -0.08680151 -0.037297238 -0.013521259 0.1009832 0.015947295 -0.018310366 -0.05441339
-0.11488849 -0.026365958 -0.06295283 0.03351467 -0.038904436 -0.06485618 -0.065407075 0.02256001
0.023155343 -0.0069147563 0.08780724 -0.011666749 0.0034905982 0.031588152 0.123603 0.07430026
0.049182225 -0.009071717 0.0128197335 0.12973529 -7.045496e-05 -0.0280309 -0.12682961 -0.051629674
0.042641144 -0.0059490358 -0.014122939 0.03569945 0.10168198 -0.12280839 -0.06774272 -0.13057558
-0.14752384 -0.28593507 -0.3306584 -0.33761588 -0.40645695 -0.16823721 -0.12571497 -0.04452065
-0.10691227 -0.11905623 0.03974984 -0.015920747 0.16650103 0.044226732 -0.006245245 0.061418783
0.02817722 0.15480281 0.1487711 0.1261619 0.15149854 0.17380536 0.013404205 -0.0054875333
-0.041496426 -0.017841619 -0.00491551 -0.025723549 -0.05524281 -0.116242625 -0.115492664 -0.07246575
0.07769823 0.04565776 0.041837577 0.08739173 0.1402957 0.12010179 0.01032194 -0.012831983
0.08034776 0.06931265 -0.021137943 -0.029634934 0.006972365 -0.027050313 -0.12838107 -0.08283799
-0.11162469 -0.038743578 -0.055716794 -0.09264947 0.10236534 -0.009009858 0.07501928 0.040303133
0.0075740092 -0.034826946 -0.09797865 0.001890329 0.015644455 -0.036854167 0.041055057 0.0016879346
0.06906387 0.036948234 -0.07605032 -0.0015626234 0.015112164 -0.013894456 0.034690876 -0.012228504
-0.054400545 -0.032769658 -0.0802434 -0.08217889 -0.047009915 0.10280485 0.07995354 -0.099842176
-0.09587274 -0.09894889 0.11764745 0.0077494606 -0.0066598635 -0.11218749 -0.1276434 0.007715925
0.021031143 0.065570235 -0.012264003 -0.0065181046 0.009945012 0.066898204 0.13475408 0.08627413
0.0050929966 -0.04494882 -0.09913804 -0.10354086 -0.10645382 -0.17161359 -0.07580212 -0.038126998
-0.0054640295 0.013732495 -0.012744552 0.08527341 0.073257506 0.045585167 -0.0073444173 -0.0007003633
0.014018517 -0.034219917 -0.07011597 -0.040151406 -0.051865734 0.023301387 0.04164602 -0.041986655
0.012885076 0.09988172 0.025156893 0.09941162 0.0653443 0.03686923 0.092846535 -0.069698945
-0.02270379 0.083113395 0.0661242 -0.028734088 0.17304476 0.07132139 0.028092666 0.086520866
0.008637296 0.05512736 0.112382755 -0.018365866 0.0013433052 0.09113023 -0.08731995 0.00057045254
0.0028019496 0.015281571 0.04121216 0.22667488 0.24461067 0.073927686 -0.007832238 0.08002935
-0.060138527 0.014734755 -0.015608284 0.0018171377 -0.050202224 0.14456818 0.050036263 0.0063106394
0.08073201 0.013838361 -0.037540462 -0.07097226 -0.12964484 -0.044603564 -0.06661926 0.043703023
0.012682177 -0.03263834 -0.014869003 -0.02704893 -0.109164685 0.08800564 0.025844976 -0.053465724
-0.06768141 0.048357505 -0.011775909 -0.015556377 0.02195603 0.002395841 0.04358378 -0.0035133387
-0.0037496025 -0.009993952 -0.04910807 -0.038995642 -0.12002526 -0.038595516 -0.022932861 -0.026221735
-0.04205416 -0.060720295 0.0146785965 -0.0034759885 0.026800832 0.07157805 0.0007982135 -0.024821555
-0.017568752 0.032269616 -0.045332342 -0.0634094 -0.03933743 -0.005621739 0.02509425 -0.007720612

conv2.bias f4 [32]
00000000: 40af b33c 50a1 58bd 58e1 a4ba d1d6 cd3b
00000010: 0d3e 473d e17c e8bc 9d53 f2bc e139 4d3d
00000020: 9b8c f83b 3460 0b3d 708d d7ba c741 6ebd
00000030: eb30 453d afcd 933c 01cc 383e ce99 823d
00000040: 1cfc 1abd c083 e43a d4ff 823c 93ee 4f3d
00000050: e6d2 af3d 74aa e1bc 69e0 25bd d2db 8c3d
00000060: f92a 45bc 40d2 1d3d f257 2a3d 12b2 273d
00000070: 89fa 273d 8bc9 f83c 9e66 28bd 97e0 1f3d
0.021934152 -0.052888215 -0.0012579365 0.0062817116 0.04864316 -0.02837986 -0.029580886 0.050104026
0.007585121 0.034027293 -0.001644535 -0.0581682 0.048142355 0.018042414 0.18046571 0.06376992
-0.037838086 0.0017434284 0.015991129 0.05076463 0.085851476 -0.027547099 -0.040497217 0.06877865
-0.012034171 0.03853059 0.041587777 0.040941305 0.041010413 0.03036954 -0.04111349 0.039032545

conv3.weight f4 [1, 32, 5, 5]
00000000: cd49 1b3d 09e0 653d 2954 6e3d 0525 813d
00000010: 5b67 2a3d bfd9 a2bc 40a4 87bc 2c42 03bd
00000020: e04a 48bc 8f9d c4bb dcf4 1fbd 9a1d 38bd
00000030: 862d a7bd 0d5c bfbd 0695 15bd 4be5 2ebb
00000040: 5878 3e3c 956b c13a 82a3 f7bc 9116 a9bb
00000050: 2ed8 ee3c cbf8 323d 4262 873d ca89 233d
00000060: 6508 e13c c901 a33b 34af d0bc 8dc3 903c
00000070: aac0 b43c 731a 0abd 6d2c 413c 3b06 4ebc
00000080: 2063 9f3c b729 35bc 9684 61bb 2e17 2dbd
00000090: 1be8 a13c 1e24 c23b 68a2 e43c 4279 35bc
000000a0: 1efc 9c3c 5c2b c7bc a84f d4bc b6a5 aebc
000000b0: 23a0 9d3c 07b4 173d 5157 d83c db40 aebc
000000c0: ebc2 50bc f7ea c53c 557f 62bc 0979 3ebc
000000d0: 0369 dc3c 3c5d f4bc 5b31 8cbc 2467 a0bc
000000e0: 0398 f1bb 0881 d4bc f1d9 053c bb16 cabc
000000f0: 8bb0 76bc d40b 0fbd 7bad bc3c 6208 b0bc
00000100: adc5 83bb 4477 a8bc fbd6 a0bb 30d8 eebb
00000110: 1952 41bc a6d7 73b9 2a58 7c3c 68f8 ee3c
00000120: f298 d43c 8b97 d9bc a253 84bb 8269 74bd
00000130: 0efd b9bc 5534 97bb efbb 1bbc 13df 8cbc
00000140: a59d 103b e6ba 7f3d 049d 713d 5470 7e3c
00000150: 0c71 c03c 7ad5 6d3d cc90 953d 6c7a 4f3b
00000160: f240 47bd f052 7d3a b5b1 f63b 138f b6bc
00000170: fbee afbd 37e2 89bd 9584 943b 68f0 59bb
00000180: 4d00 9bbc 47e1 84bc e5dc 953c 038f 4a3d
00000190: 3526 a8ba 30d4 1e3b 6673 4c3c 7fc1 9dbb
000001a0: 0c38 123b a918 83bc 3aec da3c 9f50 f1ba
000001b0: 08c3 c73c b10b a8bc 02bb 0cbd a186 35b9
000001c0: c703 0ebd 0236 b03c 788b ba3c 1842 a93c
000001d0: fa70 c63c 1340 de3b bc52 1a3c bc81 e3bb
000001e0: bbbe e53c 7c50 073c a51a 4bbc 4f86 17bd
000001f0: 44b0 ac3a 5825 913b 3c77 293d a6a0 083d
00000200: 6de0 6f3c f2f9 10bc 4e43 773c ea3f b4bb
00000210: e2cd bb39 092c 313c 6865 90ba 7e90 c8bb
00000220: 15c4 c1bc be03 07bd 0b6a d8bb a95b d03c
00000230: 6042 8d3a e66f 59bd afdf 0bbd f911 7a3c
00000240: 2c2c 003d 6244 453c 1111 c2bc 58ed 01bc
00000250: 2aa4 aa3c 70a4 eb3b e90b da3b e539 b2bb
00000260: 5173 0f3c dce4 733a 2095 02bc 7d00 063c
00000270: 53a3 4c3b f1d0 efbb e275 bc3c 94a7 063d
00000280: 5cfc a23c 70db 4dbc 7a93 f0bc 264f d9bc
00000290: 6510 88bc 8556 debb 7105 7d3c 9504 323c
000002a0: 8b32 013d 775b 1ebd c72d c4bc 0626 fe3c
000002b0: 45d5 babc 7c19 c13c 99db e2b9 2f32 d8bb
000002c0: e12b ba3c 9e27 d33c 76c9 64bc fb5c 89ba
000002d0: afe4 f43c 7a9a d53c a129 433c a175 acbc
000002e0: c20d c0bc 2304 b33c 4f28 883c 2892 dcbb
000002f0: c7d9 0a3d f1aa c73c a389 2cbc c86e 473c
00000300: 9cb3 033d 8437 a63c 0692 8abc a38f 10bd
00000310: d852 0d3c daa8 463c 98b6 0bbd a259 db3b
00000320: 92a0 b2bc a8b1 673c d088 8dbc b1c5 dabc
00000330: 8ef9 0a3d 5e32 ad3c eae4 69bc ef11 cdbc
00000340: bf5d c23c 6c2a b6bc 99d3 2bbc 3ba0 80bc
00000350: bcae 323c b54e fdba 6a89 533c 2a30 a2bc
00000360: 9bba d53c de4d 853b 681e c8bc 5da2 d3bc
00000370: 5af3 af3c cb43 7abc 8d0e 223c 479c 6b3a
00000380: ba95 86bc d862 083d 5090 b8ba 049c 583c
00000390: 24f3 5f3c d420 fcb9 c924 e33c d065 81bc
000003a0: f868 af3b eb2f acba a217 cb3b a860 8cbc
000003b0: 7693 ffbc 6b72 23bd 47cc 3f3c ea35 093c
000003c0: a80d 04bd 420a 3139 f0f0 eebc df62 e6bc
000003d0: b738 d33c 7869 61bc 8cb8 fd3c df08 223d
000003e0: b5de a33b 8b42 293c 1aa6 f9bc 4a9e 71bc
000003f0: 437f c3ba bbf9 013c 43d1 6a3c b55d 9f3c
0.03791218 0.05612186 0.05818573 0.06305889 0.041602474 -0.01987922 -0.016557813 -0.03204553
-0.012224883 -0.0060002278 -0.039051875 -0.044950105 -0.0816298 -0.09343729 -0.036519073 -0.0026686962
0.011625372 0.0014756793 -0.030229334 -0.005160161 0.029155817 0.0436943 0.06610538 0.039926328
0.027469823 0.004974578 -0.025474168 0.01767137 0.022064526 -0.03371663 0.011790377 -0.012574728
0.019456446 -0.011057309 -0.0034411303 -0.042258434 0.019763997 0.0059247157 0.027909473 -0.011076273
0.019163188 -0.024312668 -0.02591689 -0.021319252 0.019241398 0.03703692 0.026408823 -0.02127116
-0.012741785 0.024159892 -0.013824304 -0.011625537 0.026905542 -0.029829614 -0.017113378 -0.019580431
-0.0073728575 -0.025940433 0.008169637 -0.024669042 -0.01505674 -0.03492339 0.02303194 -0.021488372
-0.0040213675 -0.020564683 -0.00490844 -0.007288955 -0.011799359 -0.00023254621 0.015401879 0.029171184
0.025951836 -0.02656152 -0.00403829 -0.059670933 -0.022703674 -0.0046143928 -0.009505256 -0.017196214
0.002206662 0.0624341 0.058987632 0.015529711 0.023491405 0.058064915 0.073030084 0.0031658662
-0.04864592 0.0009663543 0.0075285085 -0.02228502 -0.08590504 -0.067326 0.0045324066 -0.0033254866
-0.018921042 -0.016220702 0.018293807 0.049452793 -0.0012828769 0.002423536 0.012478685 -0.0048143263
0.0022311239 -0.01600297 0.02672397 -0.0018410868 0.02438499 -0.020513387 -0.034358032 -0.00017311658
-0.03467157 0.021510128 0.022771582 0.020661399 0.024223793 0.0067825406 0.0094191395 -0.006942956
0.028045049 0.008258935 -0.012396489 -0.03699332 0.001317509 0.0044295006 0.041373476 0.03335633
0.01464091 -0.008848654 0.01509173 -0.005500783 0.00035820814 0.010813721 -0.001101655 -0.0061207404
-0.02365307 -0.032962553 -0.006604438 0.025434332 0.0010777228 -0.05308523 -0.03414887 0.015263074
0.031292126 0.0120402295 -0.023689779 -0.007930122 0.020830233 0.0071912333 0.006654252 -0.0054390305
0.008755521 0.0009303817 -0.0079701245 0.008178827 0.0031225279 -0.007318609 0.02300543 0.03287466
0.019895725 -0.012564525 -0.029367197 -0.026526999 -0.01660938 -0.0067852163 0.015443192 0.01086535
0.031542342 -0.038661446 -0.02394761 0.03102399 -0.022806773 0.023571722 -0.00043269692 -0.006597779
0.022726001 0.025775727 -0.013964048 -0.0010479981 0.029894201 0.026074637 0.011911781 -0.021052184
-0.02344406 0.021852558 0.016620783 -0.0067312904 0.033899095 0.024373503 -0.010530862 0.012172408
0.03215371 0.020290144 -0.016915333 -0.035293233 0.0086257085 0.012125218 -0.03410968 0.0066940347
-0.021805082 0.014141478 -0.017277151 -0.026705595 0.0339294 0.021142181 -0.014275769 -0.025032965
0.023726342 -0.022237025 -0.0104874605 -0.015701404 0.010905918 -0.0019325825 0.01291118 -0.019798357
0.026089957 0.0040681204 -0.024428561 -0.025834257 0.021478344 -0.015274952 0.0098911645 0.0008987826
-0.016428817 0.03329739 -0.0014081094 0.013220791 0.013668809 -0.00048089644 0.027727501 -0.015795618
0.0053530894 -0.0013136839 0.0061978856 -0.017135933 -0.031198245 -0.03990404 0.011706418 0.0083746705
-0.032239586 0.00016883857 -0.029167622 -0.028123317 0.02578388 -0.013758056 0.030971788 0.03955924
0.005000914 0.0103308065 -0.030474711 -0.014747212 -0.0014915246 0.007933076 0.014332118 0.019453863
